…
  {
    "objectID": "blog/posts/22_12_23_torch.nn/12_23_torch.nn.html#modules",
    "href": "blog/posts/22_12_23_torch.nn/12_23_torch.nn.html#modules",
    "title": "torch.nn",
    "section": "modules()",
    "text": "modules()\n返回一个包含 当前模型 所有模块的迭代器。\n\nclass Model(nn.Module):\n    def __init__(self):\n        super(Model, self).__init__()\n        self.add_module(\"conv\", nn.Conv2d(10, 20, 4))\n        self.add_module(\"conv1\", nn.Conv2d(20, 10, 4))\n\n\nmodel = Model()\n\n\nfor module in model.modules():\n    print(module)\n    print('-------------CUTTHERE---------------')\n\nModel(\n  (conv): Conv2d(10, 20, kernel_size=(4, 4), stride=(1, 1))\n  (conv1): Conv2d(20, 10, kernel_size=(4, 4), stride=(1, 1))\n)\n-------------CUTTHERE---------------\nConv2d(10, 20, kernel_size=(4, 4), stride=(1, 1))\n-------------CUTTHERE---------------\nConv2d(20, 10, kernel_size=(4, 4), stride=(1, 1))\n-------------CUTTHERE---------------\n\n\n可以看见，它输出了所有的模块\n重复的模块只被返回一次(children()也是)\n\nclass Model(nn.Module):\n    def __init__(self):\n        super(Model, self).__init__()\n        submodule = nn.Conv2d(10, 20, 4)\n        self.add_module('conv1', submodule)\n        self.add_module('cv2', submodule)\n        self.add_module('cv20', submodule)\n\n\nmodel = Model()\n\n\nfor module in model.modules():\n    print(module)\n    print('-------------CUTTHERE---------------')\n\nModel(\n  (conv1): Conv2d(10, 20, kernel_size=(4, 4), stride=(1, 1))\n  (cv2): Conv2d(10, 20, kernel_size=(4, 4), stride=(1, 1))\n  (cv20): Conv2d(10, 20, kernel_size=(4, 4), stride=(1, 1))\n)\n-------------CUTTHERE---------------\nConv2d(10, 20, kernel_size=(4, 4), stride=(1, 1))\n-------------CUTTHERE---------------"
  },
  {
    "objectID": "blog/posts/22_12_23_torch.nn/12_23_torch.nn.html#named_children",
    "href": "blog/posts/22_12_23_torch.nn/12_23_torch.nn.html#named_children",
    "title": "torch.nn",
    "section": "named_children()",
…
    "text": "class torch.nn.ModuleList(modules=None)\n将submodules保存在一个list中。\nModuleList可以像一般的Python list一样被索引。而且ModuleList中包含的modules已经被正确的注册，对所有的module method可见。\n\nclass MyModule(nn.Module):\n    def __init__(self):\n        super(MyModule, self).__init__()\n        self.linears = nn.ModuleList([nn.Linear(10, 10) for i in range(10)])\n\n    def forward(self, x):\n        # ModuleList can act as an iterable, or be indexed         using ints\n        for i, l in enumerate(self.linears):\n            x = self.linears[i // 2](x) + l(x)\n        return x\n\n\nmodel = MyModule()\n\n\nfor module in model.modules():\n    print(module)\n    print('-------------CUTTHERE---------------')\n\nMyModule(\n  (linears): ModuleList(\n    (0): Linear(in_features=10, out_features=10, bias=True)\n    (1): Linear(in_features=10, out_features=10, bias=True)\n    (2): Linear(in_features=10, out_features=10, bias=True)\n    (3): Linear(in_features=10, out_features=10, bias=True)\n    (4): Linear(in_features=10, out_features=10, bias=True)\n    (5): Linear(in_features=10, out_features=10, bias=True)\n    (6): Linear(in_features=10, out_features=10, bias=True)\n    (7): Linear(in_features=10, out_features=10, bias=True)\n    (8): Linear(in_features=10, out_features=10, bias=True)\n    (9): Linear(in_features=10, out_features=10, bias=True)\n  )\n)\n-------------CUTTHERE---------------\nModuleList(\n  (0): Linear(in_features=10, out_features=10, bias=True)\n  (1): Linear(in_features=10, out_features=10, bias=True)\n  (2): Linear(in_features=10, out_features=10, bias=True)\n  (3): Linear(in_features=10, out_features=10, bias=True)\n  (4): Linear(in_features=10, out_features=10, bias=True)\n  (5): Linear(in_features=10, out_features=10, bias=True)\n  (6): Linear(in_features=10, out_features=10, bias=True)\n  (7): Linear(in_features=10, out_features=10, bias=True)\n  (8): Linear(in_features=10, out_features=10, bias=True)\n  (9): Linear(in_features=10, out_features=10, bias=True)\n)\n-------------CUTTHERE---------------\nLinear(in_features=10, out_features=10, bias=True)\n-------------CUTTHERE---------------\nLinear(in_features=10, out_features=10, bias=True)\n-------------CUTTHERE---------------\nLinear(in_features=10, out_features=10, bias=True)\n-------------CUTTHERE---------------\nLinear(in_features=10, out_features=10, bias
…
=True)\n-------------CUTTHERE---------------\nLinear(in_features=10, out_features=10, bias=True)\n-------------CUTTHERE---------------\nLinear(in_features=10, out_features=10, bias=True)\n-------------CUTTHERE---------------"
  },
  {
    "objectID": "blog/posts/22_12_23_torch.nn/12_23_torch.nn.html#appendmodule",
    "href": "blog/posts/22_12_23_torch.nn/12_23_torch.nn.html#appendmodule",
    "title": "torch.nn",
    "section": "append(module)",
    "text": "append(module)\n等价于 list 的 append()\n参数说明:\nmodule (nn.Module) – 要 append 的module\n\nlist0.append(nn.Linear(1, 10))\n\nModuleList(\n  (0): Linear(in_features=1, out_features=10, bias=True)\n  (1): Linear(in_features=1, out_features=10, bias=True)\n  (2): Linear(in_features=1, out_features=10, bias=True)\n  (3): Linear(in_features=1, out_features=10, bias=True)\n  (4): Linear(in_features=1, out_features=10, bias=True)\n  (5): Linear(in_features=1, out_features=10, bias=True)\n  (6): Linear(in_features=1, out_features=10, bias=True)\n  (7): Linear(in_features=1, out_features=10, bias=True)\n  (8): Linear(in_features=1, out_features=10, bias=True)\n)"
  },
  {
    "objectID": "blog/posts/22_12_23_torch.nn/12_23_torch.nn.html#extendmodules",
    "href": "blog/posts/22_12_23_torch.nn/12_23_torch.nn.html#extendmodules",
    "title": "torch.nn",
    "section": "extend(modules)",
    "text": "extend(modules)\n等价于 list 的 extend() 方法\n参数说明:\nmodules (list) – list of modules to append\n\nlist0 = nn.ModuleList([nn.Linear(1, 10)])\n\n\nlist0\n\nModuleList(\n  (0): Linear(in_features=1, out_features=10, bias=True)\n)\n\n\n\nlist0.extend([nn.Linear(1, 10), nn.Linear(1, 10)])\n\nModuleList(\n  (0): Linear(in_features=1, out_features=10, bias=True)\n  (1): Linear(in_features=1, out_features=10, bias=True)\n  (2): Linear(in_features=1, out_features=10, bias=True)\n)\n\n\nextend输入迭代器/列表等，append输入一个数据"
  },
  {
    "objectID": "blog/posts/22_12_23_torch.nn/12_23_torch.nn.html#class-torch.nn.conv1d",
    "href": "blog/posts/22_12_23_torch.nn/12_23_torch.nn.html#class-torch.nn.conv1d",
    "title": "torch.nn",
    "section": "class torch.nn.Conv1d",
    "text": "class torch.nn.Conv1d\n\nin_channels(int)\n\n输入信号的通道(比如R
…
