…
<div class="sourceCode cell-code" id="cb41" style="background: #f1f3f5;"><pre class="sourceCode python code-with-copy"><code class="sourceCode python"><span id="cb41-1"><span class="cf" style="color: #003B4F;">for</span> module <span class="kw" style="color: #003B4F;">in</span> model.modules():</span>
<span id="cb41-2">    <span class="bu" style="color: null;">print</span>(module)</span>
<span id="cb41-3">    <span class="bu" style="color: null;">print</span>(<span class="st" style="color: #20794D;">'-------------CUTTHERE---------------'</span>)</span></code></pre></div>
<div class="cell-output cell-output-stdout">
<pre><code>MyModule(
  (linears): ModuleList(
    (0): Linear(in_features=10, out_features=10, bias=True)
    (1): Linear(in_features=10, out_features=10, bias=True)
    (2): Linear(in_features=10, out_features=10, bias=True)
    (3): Linear(in_features=10, out_features=10, bias=True)
    (4): Linear(in_features=10, out_features=10, bias=True)
    (5): Linear(in_features=10, out_features=10, bias=True)
    (6): Linear(in_features=10, out_features=10, bias=True)
    (7): Linear(in_features=10, out_features=10, bias=True)
    (8): Linear(in_features=10, out_features=10, bias=True)
    (9): Linear(in_features=10, out_features=10, bias=True)
  )
)
-------------CUTTHERE---------------
ModuleList(
  (0): Linear(in_features=10, out_features=10, bias=True)
  (1): Linear(in_features=10, out_features=10, bias=True)
  (2): Linear(in_features=10, out_features=10, bias=True)
  (3): Linear(in_features=10, out_features=10, bias=True)
  (4): Linear(in_features=10, out_features=10, bias=True)
  (5): Linear(in_features=10, out_features=10, bias=True)
  (6): Linear(in_features=10, out_features=10, bias=True)
  (7): Linear(in_features=10, out_features=10, bias=True)
  (8): Linear(in_features=10, out_features=10, bias=True)
  (9): Linear(in_features=10, out_features=10, bias=True)
)
-------------CUTTHERE---------------
Linear(in_features=10, out_features=10, bias=True)
-------------CUTTHERE---------------
Linear(in_features=10, out_features=10, bias=True)
-------------CUTTHERE---------------
Linear(in_features=10, out_features=10, bias=True)
-------------CUTTHERE---------------
Linear(in_features=10, out_features=10, bias=True)
-------------CUTTHERE---------------
…
<section id="appendmodule" class="level2">
<h2 class="anchored" data-anchor-id="appendmodule">append(module)</h2>
<p>等价于 <code>list</code> 的 <code>append()</code></p>
<p>参数说明:</p>
<p>module (nn.Module) – 要 append 的module</p>
<div class="cell">
<div class="sourceCode cell-code" id="cb43" style="background: #f1f3f5;"><pre class="sourceCode python code-with-copy"><code class="sourceCode python"><span id="cb43-1">list0.append(nn.Linear(<span class="dv" style="color: #AD0000;">1</span>, <span class="dv" style="color: #AD0000;">10</span>))</span></code></pre></div>
<div class="cell-output cell-output-display">
<pre><code>ModuleList(
  (0): Linear(in_features=1, out_features=10, bias=True)
  (1): Linear(in_features=1, out_features=10, bias=True)
  (2): Linear(in_features=1, out_features=10, bias=True)
  (3): Linear(in_features=1, out_features=10, bias=True)
  (4): Linear(in_features=1, out_features=10, bias=True)
  (5): Linear(in_features=1, out_features=10, bias=True)
  (6): Linear(in_features=1, out_features=10, bias=True)
  (7): Linear(in_features=1, out_features=10, bias=True)
  (8): Linear(in_features=1, out_features=10, bias=True)
)</code></pre>
</div>
</div>
</section>
<section id="extendmodules" class="level2">
<h2 class="anchored" data-anchor-id="extendmodules">extend(modules)</h2>
<p>等价于 <code>list</code> 的 <code>extend()</code> 方法</p>
<p>参数说明:</p>
<p>modules (list) – list of modules to append</p>
<div class="cell">
<div class="sourceCode cell-code" id="cb45" style="background:
…
